/gpfs/home/nct01/nct01029/AutoLab1/MAMe_metadata/MAMe_dataset.csv
Found 20300 non-validated image filenames belonging to 29 classes.
Found 1450 non-validated image filenames belonging to 29 classes.
Found 15657 non-validated image filenames belonging to 29 classes.
Model: "sequential"
_________________________________________________________________
Layer (type)                 Output Shape              Param #   
=================================================================
conv2d (Conv2D)              (None, 256, 256, 32)      896       
_________________________________________________________________
activation (Activation)      (None, 256, 256, 32)      0         
_________________________________________________________________
batch_normalization (BatchNo (None, 256, 256, 32)      128       
_________________________________________________________________
conv2d_1 (Conv2D)            (None, 256, 256, 32)      9248      
_________________________________________________________________
activation_1 (Activation)    (None, 256, 256, 32)      0         
_________________________________________________________________
batch_normalization_1 (Batch (None, 256, 256, 32)      128       
_________________________________________________________________
max_pooling2d (MaxPooling2D) (None, 128, 128, 32)      0         
_________________________________________________________________
dropout (Dropout)            (None, 128, 128, 32)      0         
_________________________________________________________________
conv2d_2 (Conv2D)            (None, 128, 128, 64)      18496     
_________________________________________________________________
activation_2 (Activation)    (None, 128, 128, 64)      0         
_________________________________________________________________
batch_normalization_2 (Batch (None, 128, 128, 64)      256       
_________________________________________________________________
conv2d_3 (Conv2D)            (None, 128, 128, 64)      36928     
_________________________________________________________________
activation_3 (Activation)    (None, 128, 128, 64)      0         
_________________________________________________________________
batch_normalization_3 (Batch (None, 128, 128, 64)      256       
_________________________________________________________________
max_pooling2d_1 (MaxPooling2 (None, 64, 64, 64)        0         
_________________________________________________________________
dropout_1 (Dropout)          (None, 64, 64, 64)        0         
_________________________________________________________________
conv2d_4 (Conv2D)            (None, 64, 64, 128)       73856     
_________________________________________________________________
activation_4 (Activation)    (None, 64, 64, 128)       0         
_________________________________________________________________
batch_normalization_4 (Batch (None, 64, 64, 128)       512       
_________________________________________________________________
conv2d_5 (Conv2D)            (None, 64, 64, 128)       147584    
_________________________________________________________________
activation_5 (Activation)    (None, 64, 64, 128)       0         
_________________________________________________________________
batch_normalization_5 (Batch (None, 64, 64, 128)       512       
_________________________________________________________________
max_pooling2d_2 (MaxPooling2 (None, 32, 32, 128)       0         
_________________________________________________________________
dropout_2 (Dropout)          (None, 32, 32, 128)       0         
_________________________________________________________________
global_average_pooling2d (Gl (None, 128)               0         
_________________________________________________________________
flatten (Flatten)            (None, 128)               0         
_________________________________________________________________
dense (Dense)                (None, 29)                3741      
=================================================================
Total params: 292,541
Trainable params: 291,645
Non-trainable params: 896
_________________________________________________________________
Epoch 1/30
  1/158 [..............................] - ETA: 0s - loss: 4.1663 - accuracy: 0.0156  2/15
…
