/gpfs/home/nct01/nct01029/AutoLab1/MAMe_metadata/MAMe_dataset.csv
Found 20300 non-validated image filenames belonging to 29 classes.
Found 1450 non-validated image filenames belonging to 29 classes.
Found 15657 non-validated image filenames belonging to 29 classes.
Model: "sequential"
_________________________________________________________________
Layer (type)                 Output Shape              Param #   
=================================================================
conv2d (Conv2D)              (None, 256, 256, 32)      896       
_________________________________________________________________
activation_1 (Activation)    (None, 256, 256, 32)      0         
_________________________________________________________________
batch_normalization (BatchNo (None, 256, 256, 32)      128       
_________________________________________________________________
conv2d_1 (Conv2D)            (None, 256, 256, 32)      9248      
_________________________________________________________________
activation_2 (Activation)    (None, 256, 256, 32)      0         
_________________________________________________________________
batch_normalization_1 (Batch (None, 256, 256, 32)      128       
_________________________________________________________________
max_pooling2d (MaxPooling2D) (None, 128, 128, 32)      0         
_________________________________________________________________
conv2d_2 (Conv2D)            (None, 128, 128, 64)      18496     
_________________________________________________________________
activation_3 (Activation)    (None, 128, 128, 64)      0         
_________________________________________________________________
batch_normalization_2 (Batch (None, 128, 128, 64)      256       
_________________________________________________________________
conv2d_3 (Conv2D)            (None, 128, 128, 64)      36928     
_________________________________________________________________
activation_4 (Activation)    (None, 128, 128, 64)      0         
_________________________________________________________________
batch_normalization_3 (Batch (None, 128, 128, 64)      256       
_________________________________________________________________
max_pooling2d_1 (MaxPooling2 (None, 64, 64, 64)        0         
_________________________________________________________________
conv2d_4 (Conv2D)            (None, 64, 64, 128)       73856     
_________________________________________________________________
activation_5 (Activation)    (None, 64, 64, 128)       0         
_________________________________________________________________
batch_normalization_4 (Batch (None, 64, 64, 128)       512       
_________________________________________________________________
conv2d_5 (Conv2D)            (None, 64, 64, 128)       147584    
_________________________________________________________________
activation_6 (Activation)    (None, 64, 64, 128)       0         
_________________________________________________________________
batch_normalization_5 (Batch (None, 64, 64, 128)       512       
_________________________________________________________________
max_pooling2d_2 (MaxPooling2 (None, 32, 32, 128)       0         
_________________________________________________________________
conv2d_6 (Conv2D)            (None, 32, 32, 256)       295168    
_________________________________________________________________
activation_7 (Activation)    (None, 32, 32, 256)       0         
_________________________________________________________________
batch_normalization_6 (Batch (None, 32, 32, 256)       1024      
_________________________________________________________________
conv2d_7 (Conv2D)            (None, 32, 32, 256)       590080    
_________________________________________________________________
activation_8 (Activation)    (None, 32, 32, 256)       0         
_________________________________________________________________
batch_normalization_7 (Batch (None, 32, 32, 256)       1024      
_________________________________________________________________
max_pooling2d_3 (MaxPooling2 (None, 8, 8, 256)         0         
_________________________________________________________________
global_average_pooling2d (Gl (None, 256)               0         
_________________________________________________________________
flatten (Flatten)            (None, 256)               0         
_________________________________________________________________
dense (Dense)                (None, 29)                7453      
=================================================================
Total params: 1,183,549
Trainable params: 1,181,629
Non-trainable params: 1,920
_________________________________________________________________
Epoch 1/30
  1/317 [..............................] - ETA: 0s - loss: 4.4087 - accuracy: 0.0312
…
