…
ct01036/AutoLab1/MAMe_metadata/MAMe_dataset.csv
Found 20300 non-validated image filenames belonging to 29 classes.
Found 1450 non-validated image filenames belonging to 29 classes.
Found 15657 non-validated image filenames belonging to 29 classes.
Model: "functional_1"
__________________________________________________________________________________________________
Layer (type)                    Output Shape         Param #     Connected to                     
==================================================================================================
input_1 (InputLayer)            [(None, 256, 256, 3) 0                                            
__________________________________________________________________________________________________
conv2d (Conv2D)                 (None, 256, 256, 32) 896         input_1[0][0]                    
__________________________________________________________________________________________________
activation (Activation)         (None, 256, 256, 32) 0           conv2d[0][0]                     
__________________________________________________________________________________________________
batch_normalization (BatchNorma (None, 256, 256, 32) 128         activation[0][0]                 
__________________________________________________________________________________________________
conv2d_1 (Conv2D)               (None, 256, 256, 32) 9248        batch_normalization[0][0]        
__________________________________________________________________________________________________
conv2d_3 (Conv2D)               (None, 256, 256, 64) 51264       batch_normalization[0][0]        
__________________________________________________________________________________________________
activation_1 (Activation)       (None, 256, 256, 32) 0           conv2d_1[0][0]                   
__________________________________________________________________________________________________
activation_3 (Activation)       (None, 256, 256, 64) 0           conv2d_3[0][0]                   
__________________________________________________________________________________________________
batch_normalization_1 (BatchNor (None, 256, 256, 32) 128         activation_1[0][0]               
__________________________________________________________________________________________________
batch_normalization_3 (BatchNor (None, 256, 256, 64) 256         activation_3[0][0]               
__________________________________________________________________________________________________
max_pooling2d (MaxPooling2D)    (None, 128, 128, 32) 0           batch_normalization_1[0][0]      
__________________________________________________________________________________________________
max_pooling2d_2 (MaxPooling2D)  (None, 128, 128, 64) 0           batch_normalization_3[0][0]      
__________________________________________________________________________________________________
conv2d_2 (Conv2D)               (None, 128, 128, 64) 18496       max_pooling2d[0][0]              
__________________________________________________________________________________________________
conv2d_4 (Conv2D)               (None, 128, 128, 128 401536      max_pooling2d_2[0][0]            
__________________________________________________________________________________________________
activation_2 (Activation)       (None, 128, 128, 64) 0           conv2d_2[0][0]                   
__________________________________________________________________________________________________
activation_4 (Activation)       (None, 128, 128, 128 0           conv2d_4[0][0]                   
__________________________________________________________________________________________________
batch_normalization_2 (BatchNor (None, 128, 128, 64) 256         activation_2[0][0]               
__________________________________________________________________________________________________
batch_normalization_4 (BatchNor (None, 128, 128, 128 512         activation_4[0][0]               
__________________________________________________________________________________________________
concatenate (Concatenate)       (None, 128, 128, 96) 0           max_pooling2d[0][0]              
                                                                 max_pooling2d_2[0][0]            
__________________________________________________________________________________________________
max_pooling2d_1 (MaxPooling2D)  (None, 64, 64, 64)   0           batch_normalization_2[0][0]      
__________________________________________________________________________________________________
max_pooling2d_3 (MaxPooling2D)  (None, 64, 64, 128)  0           batch_normalization_4[0][0]      
__________________________________________________________________________________________________
conv2d_5 (Conv2D)               (None, 128, 128, 128 110720      concatenate[0][0]                
__________________________________________________________________________________________________
concatenate_1 (Concatenate)     (None, 64, 64, 192)  0           max_pooling2d_1[0][0]            
                                                                 max_pooling2d_3[0][0]            
__________________________________________________________________________________________________
activation_5 (Activation)       (None, 128, 128, 128 0           conv2d_5[0][0]                   
__________________________________________________________________________________________________
conv2d_6 (Conv2D)               (None, 64, 64, 128)  221312      concatenate_1[0][0]              
__________________________________________________________________________________________________
batch_normalization_5 (BatchNor (None, 128, 128, 128 512         activation_5[0][0]               
__________________________________________________________________________________________________
activation_6 (Activation)       (None, 64, 64, 128)  0           conv2d_6[0][0]                   
__________________________________________________________________________________________________
max_pooling2d_4 (MaxPooling2D)  (None, 64, 64, 128)  0           batch_normalization_5[0][0]      
__________________________________________________________________________________________________
batch_normalization_6 (BatchNor (None, 64, 64, 128)  512         activation_6[0][0]               
__________________________________________________________________________________________________
concatenate_2 (Concatenate)     (None, 64, 64, 256)  0           max_pooling2d_4[0][0]            
                                                                 batch_normalization_6[0][0]      
__________________________________________________________________________________________________
global_average_pooling2d (Globa (None, 256)          0           concatenate_2[0][0]              
__________________________________________________________________________________________________
flatten (Flatten)               (None, 256)          0           global_average_pooling2d[0][0]   
__________________________________________________________________________________________________
dense (Dense)                   (None, 29)           7453        flatten[0][0]                    
==================================================================================================
Total params: 823,229
Trainable params: 822,077
Non-trainable params: 1,152
__________________________________________________________________________________________________
Epoch 1/60
  1/317 [..............................] - ETA: 1s - loss: 3.5026 - accu
…
