/gpfs/home/nct01/nct01036/AutoLab1/MAMe_metadata/MAMe_dataset.csv
Found 20300 non-validated image filenames belonging to 29 classes.
Found 1450 non-validated image filenames belonging to 29 classes.
Found 15657 non-validated image filenames belonging to 29 classes.
Model: "sequential"
_________________________________________________________________
Layer (type)                 Output Shape              Param #   
=================================================================
conv2d (Conv2D)              (None, 128, 128, 96)      14208     
_________________________________________________________________
batch_normalization (BatchNo (None, 128, 128, 96)      384       
_________________________________________________________________
max_pooling2d (MaxPooling2D) (None, 64, 64, 96)        0         
_________________________________________________________________
conv2d_1 (Conv2D)            (None, 64, 64, 48)        115248    
_________________________________________________________________
batch_normalization_1 (Batch (None, 64, 64, 48)        192       
_________________________________________________________________
max_pooling2d_1 (MaxPooling2 (None, 32, 32, 48)        0         
_________________________________________________________________
conv2d_2 (Conv2D)            (None, 5, 5, 96)          225888    
_________________________________________________________________
batch_normalization_2 (Batch (None, 5, 5, 96)          384       
_________________________________________________________________
max_pooling2d_2 (MaxPooling2 (None, 2, 2, 96)          0         
_________________________________________________________________
global_average_pooling2d (Gl (None, 96)                0         
_________________________________________________________________
flatten (Flatten)            (None, 96)                0         
_________________________________________________________________
dense (Dense)                (None, 256)               24832     
_________________________________________________________________
dense_1 (Dense)              (None, 29)                7453      
=================================================================
Total params: 388,589
Trainable params: 388,109
Non-trainable params: 480
_________________________________________________________________
Epoch 1/20
  1/158 [..............................] - ETA: 1s - loss: 3.6654 - accuracy: 0.0547  2/15
…
