/gpfs/home/nct01/nct01036/AutoLab1/MAMe_metadata/MAMe_dataset.csv
Found 20300 non-validated image filenames belonging to 29 classes.
Found 1450 non-validated image filenames belonging to 29 classes.
Found 15657 non-validated image filenames belonging to 29 classes.
Model: "sequential"
_________________________________________________________________
Layer (type)                 Output Shape              Param #   
=================================================================
conv2d (Conv2D)              (None, 256, 256, 96)      7296      
_________________________________________________________________
max_pooling2d (MaxPooling2D) (None, 128, 128, 96)      0         
_________________________________________________________________
conv2d_1 (Conv2D)            (None, 128, 128, 80)      192080    
_________________________________________________________________
max_pooling2d_1 (MaxPooling2 (None, 64, 64, 80)        0         
_________________________________________________________________
conv2d_2 (Conv2D)            (None, 13, 13, 96)        192096    
_________________________________________________________________
conv2d_3 (Conv2D)            (None, 3, 3, 64)          153664    
_________________________________________________________________
flatten (Flatten)            (None, 576)               0         
_________________________________________________________________
dense (Dense)                (None, 256)               147712    
_________________________________________________________________
dense_1 (Dense)              (None, 29)                7453      
=================================================================
Total params: 700,301
Trainable params: 700,301
Non-trainable params: 0
_________________________________________________________________
Epoch 1/10
  1/158 [..............................] - ETA: 0s - loss: 28.3399 - accuracy: 0.0469  2/15
…
