…
ct01029/AutoLab1/MAMe_metadata/MAMe_dataset.csv
Found 20300 non-validated image filenames belonging to 29 classes.
Found 1450 non-validated image filenames belonging to 29 classes.
Found 15657 non-validated image filenames belonging to 29 classes.
Model: "functional_1"
__________________________________________________________________________________________________
Layer (type)                    Output Shape         Param #     Connected to                     
==================================================================================================
input_1 (InputLayer)            [(None, 256, 256, 3) 0                                            
__________________________________________________________________________________________________
sequential (Sequential)         (None, 256, 256, 32) 1024        input_1[0][0]                    
__________________________________________________________________________________________________
max_pooling2d_3 (MaxPooling2D)  (None, 128, 128, 32) 0           sequential[0][0]                 
__________________________________________________________________________________________________
sequential_1 (Sequential)       (None, 128, 128, 32) 9376        sequential[0][0]                 
__________________________________________________________________________________________________
concatenate (Concatenate)       (None, 128, 128, 64) 0           max_pooling2d_3[0][0]            
                                                                 sequential_1[0][0]               
__________________________________________________________________________________________________
sequential_2 (Sequential)       (None, 128, 128, 64) 37184       concatenate[0][0]                
__________________________________________________________________________________________________
max_pooling2d_4 (MaxPooling2D)  (None, 64, 64, 64)   0           concatenate[0][0]                
__________________________________________________________________________________________________
sequential_3 (Sequential)       (None, 64, 64, 64)   37184       sequential_2[0][0]               
__________________________________________________________________________________________________
concatenate_1 (Concatenate)     (None, 64, 64, 128)  0           max_pooling2d_4[0][0]            
                                                                 sequential_3[0][0]               
__________________________________________________________________________________________________
sequential_4 (Sequential)       (None, 64, 64, 128)  148096      concatenate_1[0][0]              
__________________________________________________________________________________________________
max_pooling2d_5 (MaxPooling2D)  (None, 32, 32, 128)  0           concatenate_1[0][0]              
__________________________________________________________________________________________________
sequential_5 (Sequential)       (None, 32, 32, 128)  148096      sequential_4[0][0]               
__________________________________________________________________________________________________
concatenate_2 (Concatenate)     (None, 32, 32, 256)  0           max_pooling2d_5[0][0]            
                                                                 sequential_5[0][0]               
__________________________________________________________________________________________________
sequential_6 (Sequential)       (None, 29)           7602205     concatenate_2[0][0]              
==================================================================================================
Total params: 7,983,165
Trainable params: 7,982,269
Non-trainable params: 896
__________________________________________________________________________________________________
Epoch 1/30
  1/317 [..............................] - ETA: 0s - loss: 7.8212 - accur
…
